scripts/wandb_new/PreTrainedEncoders/Milc/attn.pt (torch_old, 206629 bytes, 3 tensors)

0.weight f4 [128, 400]
0	0xbc45c099	-0.012069845
1	0x3b0ba3d2	0.0021307361
2	0x39cc35b9	0.0003894994
3	0x3bdbf3f2	0.00671243
4	0xbb29dcd3	-0.0025918975
5	0xbc1bd807	-0.009511954
6	0xbb064872	-0.0020489958
7	0x3a727105	0.00092484086
8	0x3c52087c	0.012819406
9	0x3bb84a09	0.00562406
10	0x3c019338	0.007908635
11	0x3b56557e	0.0032704766
12	0xba54082e	-0.0008088377
13	0xbc81b9d8	-0.015835688
14	0x3c03392f	0.008009239
15	0x3baccca6	0.0052734194
16	0x3baf1d7e	0.005344092
17	0xbb2001a7	-0.0024415047
18	0x3c32eac0	0.010920227
19	0xbbf61b27	-0.007510561
20	0x3b2a9ede	0.0026034634
21	0x3a4e035c	0.0007858777
22	0x3c70bb7e	0.014693139
23	0x3b6dfa2e	0.0036312449
24	0xba8e1c9c	-0.0010842266
25	0x3b8d89d8	0.004319411
26	0xbae895da	-0.0017744855
27	0xb9ef03aa	-0.00045588362
28	0x3bdbca0d	0.006707436
29	0x3bb3fbf2	0.0054926807
30	0xbbfc1110	-0.0076924637
31	0x3baafe2f	0.0052182893
32	0x3af227cb	0.0018474994
33	0xbbd44312	-0.006477722
34	0xbbd10bbb	-0.006379572
35	0x3b367a31	0.0027843828
36	0xbb35cc44	-0.002774016
37	0x3b3ea91a	0.0029092492
38	0xbb62a748	-0.003458457
39	0x3b9e763e	0.004835873
40	0x3bd771b8	0.0065748356
41	0x3adcde4b	0.0016850916
42	0x3b0c92b4	0.0021449747
43	0x3bec35f0	0.0072085783
44	0x3b68461d	0.0035442181
45	0x3c7a53ab	0.015278737
46	0x3c390416	0.011292478
47	0xba2ec93f	-0.0006667561
48	0xbb860720	-0.004090205
49	0xbbfb39a1	-0.007666782
50	0xbba405c3	-0.0050055697
51	0x3a425744	0.0007413516
52	0x3b2aa26a	0.0026036748
53	0xbc2308cb	-0.009950827
54	0xbb912831	-0.00442984
55	0xbb5bbf8b	-0.0033530917
56	0xbbe56e8f	-0.007001705
57	0x3b54fd8f	0.0032499766
58	0xb80c72b6	-3.3485434e-05
59	0xbbe590be	-0.00700578
60	0x3bc719b2	0.006076061
61	0x3b401c47	0.002931373
62	0x3bc4e0ef	0.0060082595
63	0x3a69274d	0.0008894101
64	0xb78f9dd3	-1.7120421e-05
65	0x3bfa9313	0.007646927
66	0x3b4927bf	0.0030693857
67	0x3bc0f331	0.0058883657
68	0x3c0f805a	0.008758629
69	0xbb0dcdb1	-0.0021637494
70	0xbbcdca0e	-0.0062801903
71	0x3b9ac0fc	0.0047227126
72	0x3be4c13d	0.0069810436
73	0xbc54baf5	-0.012984027
74	0xbaeb941e	-0.001797322
75	0x3c1e505e	0.009662716
76	0xb9f4608d	-0.00046611243
77	0xbb5f9b48	-0.0034119654
78	0x3c31e01b	0.010856654
79	0x3c4296c4	0.011876766
80	0x3ada2ed0	0.0016646031
81	0xbc1bdf11	-0.009513632
82	0x3b67d9a8	0.0035377536
83	0x3b4112b0	0.0029460602
84	0x3ad00d4b	0.0015873102
85	0x3be87a59	0.007094663
86	0xbb1cc676	-0.0023922003
87	0xb986343a	-0.00025597384
88	0xba8ffcdb	-0.0010985391
89	0xba4348f7	-0.0007449532
90	0xbb3c4bea	-0.0028731772
91	0x3ba89b0b	0.0051454357
92	0x3bc64fdb	0.006052
93	0x3be2f56f	0.0069262306
94	0xbc0bd3ca	-0.008534381
95	0xbacfdf4d	-0.0015859395
96	0xb925d582	-0.00015815164
97	0xbc4bc905	-0.0124380635
98	0x3b2accb9	0.0026061966
99	0xbab0fcd7	-0.0013503087
100	0x3b92b9c7	0.004477713
101	0xbb0544f8	-0.0020335298
102	0x3ab9ff96	0.001419055
103	0x3be0cb75	0.0068601915
104	0xbb2d3de2	-0.002643459
105	0xbb019018	-0.0019769724
106	0x3bd2c327	0.0064319554
107	0x3b4d067b	0.003128438
108	0x3bdfa600	0.0068252087
109	0xbc3a4258	-0.011368357
110	0xba8e480c	-0.0010855212
111	0x3b06f8a1	0.0020594972
112	0xbb790424	-0.0037996853
113	0x39d86ae3	0.00041278367
114	0x3bcf223a	0.006321219
115	0x3ba42e2b	0.0050103865
116	0x3b2f9a71	0.0026794935
117	0x3bf4fe71	0.007476621
118	0xbb4ab6d1	-0.003093172
119	0xbb2064ca	-0.0024474137
120	0x3b0ba823	0.0021309934
121	0x3b014f29	0.001973102
122	0xbb6cafbf	-0.0036115495
123	0x3bfa307b	0.007635174
124	0x3ba35625	0.0049846345
125	0x3bc338eb	0.005957713
126	0xbae8ae0b	-0.0017752064
127	0xbb389b8f	-0.0028168892
128	0x3bfa2ca4	0.007634716
129	0xbbcb99df	-0.006213411
130	0xbb84657a	-0.0040404173
131	0xba92cb71	-0.0011199546
132	0x3c50942d	0.01273064
133	0xbc3c5ab8	-0.011496238
134	0x3ad502d6	0.0016251456
135	0x3b777b99	0.003776288
136	0x37fae714	2.9909927e-05
137	0x3bd8fe85	0.006622138
138	0xbc6a26ce	-0.014291478
139	0x3b641f49	0.0034808686
140	0xbb9bd8b6	-0.0047560586
141	0x3b18f4f3	0.002333936
142	0x3b466746	0.0030273958
143	0x3c264fac	0.010150831
144	0xbc1e2d24	-0.009654317
145	0xbb3ccf97	-0.0028810257
146	0x3c1720fc	0.009224173
147	0x3bbbc7c6	0.005730602
148	0xbbc47bc6	-0.0059962003
149	0x3afbdf82	0.0019216391
150	0x3c0ac3ba	0.008469516
151	0xbbea43ef	-0.0071492116
152	0x3b0aed68	0.0021198634
153	0xbb48df2c	-0.00306506
154	0xbb7e07c6	-0.0038761958
155	0xbc2ae60b	-0.010430823
156	0xbb7adb5e	-0.0038277726
157	0xbc4220af	-0.011848613
158	0xbb57a40b	-0.0032904174
159	0xbc5e211b	-0.013557698
160	0xbb8081e7	-0.0039217356
161	0xbbb8c1cd	-0.005638337
162	0xbb61abd9	-0.0034434705
163	0x3af0f490	0.0018383432
164	0x3a11cc82	0.0005561785
165	0x3b4e5877	0.0031485835
166	0x3b8e021c	0.0043337476
167	0x3b4e48c7	0.0031476484
168	0xbbf3bcd7	-0.007438283
169	0xbc631744	-0.013860527
170	0x3bc0e983	0.0058872118
171	0x3b8b0b8c	0.00424332
172	0x3ba4b37a	0.005026278
173	0xbc03a66a	-0.008035282
174	0xbb3fa80f	-0.0029244458
175	0xbc872ac1	-0.016499879
176	0xbbc538fc	-0.006018756
177	0xbc0517c0	-0.008123338
178	0xbb701f91	-0.0036639909
179	0xbab432c0	-0.0013748035
180	0xbb9a6b2d	-0.0047124834
181	0x3c42e5bd	0.011895594
182	0x3b8480ac	0.004043659
183	0x3a811c18	0.0009850292
184	0x3afac480	0.0019132048
185	0x3b0336a4	0.0020021582
186	0x3c354a50	0.011065081
187	0x3c551b12	0.013006942
188	0xbc049df5	-0.0080943005
189	0x3b1f6804	0.0024323473
190	0x3c2a78a3	0.010404739
191	0x3b8f51ef	0.004373781
192	0xbbc98736	-0.0061501516
193	0xbb297875	-0.0025859152
194	0xbac250b4	-0.0014825077
195	0xba986102	-0.001162559
196	0xbb77dbc5	-0.0037820202
197	0xbb6401a4	-0.0034791017
198	0x3bc6da4a	0.0060685026
199	0xbc384e87	-0.011249191
200	0x3ba17512	0.004927286
201	0xbbc1b195	-0.005911062
202	0xbc2d41d2	-0.010574775
203	0x3bc7c5b4	0.006096566
204	0xbbb658b8	-0.0055647753
205	0xbb44bfdc	-0.0030021584
206	0xbac775b6	-0.0015217576
207	0xbbdefb39	-0.0068048504
208	0xbba304ff	-0.004974961
209	0x3a528ee4	0.00080321566
210	0xbaf2d96f	-0.0018527935
211	0x3bf92fe8	0.007604588
212	0xbb89ac4d	-0.004201448
213	0x3ae3eb6b	0.0017388886
214	0x3c08d5ab	0.008351724
215	0xbc01cd75	-0.00792252
216	0xbb2b4035	-0.00261308
217	0x3b5d10ff	0.0033732054
218	0x3be38258	0.0069430284
219	0x3beb740a	0.007185464
220	0x3bacf7be	0.0052785566
221	0xbab997b3	-0.001415959
222	0x3a0b91b3	0.000532414
223	0x3b20bfcc	0.0024528382
224	0xbc1444a4	-0.009049568
225	0xbb72d335	-0.0037052159
226	0x3b90f176	0.0044233156
227	0xbab9750c	-0.0014149263
228	0x3c69ef60	0.014278263
229	0xba9d719d	-0.0012012009
230	0x3c2d9c12	0.010596292
231	0xbc202d7b	-0.009776468
232	0xbb4dbc8c	-0.00313929
233	0xbb912a67	-0.0044301036
234	0x3bdf2cf4	0.0068107788
235	0xbc2b6899	-0.01046195
236	0x3c0f6545	0.008752172
237	0xbb7a4dcc	-0.0038193343
238	0x3c145d64	0.009055469
239	0xb9c41b99	-0.00037404595
240	0x3b0e340a	0.0021698498
241	0x3bcbd24f	0.006220139
242	0x3a3b1b97	0.0007137595
243	0x3af13f78	0.0018405756
244	0x3c3ec3b9	0.011643344
245	0xbbdc2786	-0.0067185787
246	0xb8a3a92c	-7.8039564e-05
247	0x3be34c60	0.006936595
248	0x3bf93823	0.007605569
249	0xbbe118fc	-0.0068694334
250	0x3b6f8130	0.0036545508
251	0xbb874f7d	-0.004129349
252	0xbbc0662e	-0.005871556
253	0x3b7c12db	0.0038463387
254	0xbc4229db	-0.011850799
255	0x3af10cae	0.001839062

0.bias f4 [128]
0	0xbc0d27d9	-0.008615457
1	0xbd0ce4dd	-0.03439795
2	0xbd12d8ee	-0.03585141
3	0x3d29db24	0.041468754
4	0xbb9f7cd3	-0.004867175
5	0xbd10399b	-0.035211187
6	0xbc43f1d2	-0.01195951
7	0xbbf67ea2	-0.00752242
8	0x3c8e2422	0.017351214
9	0x3c425b08	0.011862524
10	0xbcc8603f	-0.024459956
11	0x3d6febfe	0.05857467
12	0xbc42dc35	-0.011893322
13	0x3c28319a	0.010265732
14	0xbd1ced40	-0.038312197
15	0xbd584e24	-0.052808896
16	0xbd033e02	-0.032041557
17	0xbc0c59cc	-0.008566331
18	0xbccde977	-0.025135739
19	0x3cada577	0.021197064
20	0xbd01857e	-0.03162145
21	0x3c3928fc	0.011301275
22	0x3cc8e23b	0.024521938
23	0xbb8278eb	-0.0039816997
24	0xbbfd38f9	-0.007727739
25	0xbd27f1eb	-0.041002195
26	0x3d67b850	0.05657226
27	0x3d1fddf0	0.039030015
28	0xbd22259e	-0.039586656
29	0x3c34f484	0.011044625
30	0x3d4345eb	0.0476741
31	0xbd3f9b0d	-0.046778727
32	0xbd407bcd	-0.046993066
33	0xbd24450d	-0.040104914
34	0x3d9c4668	0.076306164
35	0xbd343988	-0.04400018
36	0x3abdea2d	0.0014489345
37	0x3d3b253e	0.045689814
38	0x3ab45f4f	0.0013761314
39	0x3d107e42	0.03527666
40	0xbcdc1b7c	-0.026868574
41	0x3cf7047f	0.030153511
42	0xbd382486	-0.044956706
43	0x3d1c6529	0.03818241
44	0xbce4d2ec	-0.027932607
45	0x3b9e825a	0.0048373165
46	0x3bc1cfae	0.00591465
47	0xbcff8c76	-0.031194907
48	0x3d1fccc6	0.039013647
49	0x3cb9e51f	0.022692261
50	0x3d815976	0.063158914
51	0xbcb2f7d0	-0.021846682
52	0x3d916458	0.07099217
53	0x3d6a15af	0.057149585
54	0xbca366c0	-0.019946456
55	0xbc8bb834	-0.017055608
56	0x390d9329	0.0001350163
57	0x3d63a9ee	0.05558198
58	0x3c7f46f7	0.015580884
59	0xbc0db7b5	-0.008649756
60	0xbaad56e0	-0.0013224743
61	0x3bba10d8	0.0056782775
62	0xbcf45f76	-0.029830676
63	0x3d400821	0.046882752
64	0xbd3c9308	-0.046038657
65	0xbd4df5f0	-0.050283372
66	0x3d44e15f	0.048066493
67	0xbd238eb8	-0.03993103
68	0xbd26553f	-0.04060864
69	0x3ca9c117	0.020721955
70	0x3cd63b02	0.026151184
71	0x3cb4e92d	0.022083843
72	0xbb6a5dd1	-0.0035761485
73	0x3d09b3b1	0.033618633
74	0x3aa4fb8c	0.0012587174
75	0xbd3d8019	-0.04626474
76	0xbb9a17c4	-0.00470254
77	0xbd2797e3	-0.040916335
78	0x3d30372c	0.043021366
79	0x3c1f34bc	0.009717163
80	0x3d3a79b7	0.045526233
81	0x3d10f27d	0.035387505
82	0xbd0e1cd9	-0.03469548
83	0x3ca8c6a9	0.020602541
84	0x3d238fae	0.039931946
85	0x3cd441aa	0.025910217
86	0xbd2eebc4	-0.042705312
87	0x3c8a7d2c	0.01690539
88	0xbcf1e123	-0.029526299
89	0x3ccdd4a9	0.025125818
90	0x3cba1ee1	0.022719802
91	0xbd299b56	-0.041407906
92	0x3d0b829f	0.034060117
93	0xbb2415d5	-0.0025037427
94	0xbd5d35fa	-0.054006554
95	0xbcc358ef	-0.023846118
96	0x3b9e02a9	0.0048220945
97	0xbd45faa9	-0.04833475
98	0x3b7ee2d2	0.003889252
99	0x399bad03	0.00029692808
100	0x3caf2e57	0.021384401
101	0x3d2b1eb0	0.041777313
102	0xbcbdeaf3	-0.023183322
103	0x3cf332ca	0.029687304
104	0xbc5011d0	-0.012699559
105	0x3d0e8af5	0.03480049
106	0xbc9f65dc	-0.01945775
107	0xbcb41530	-0.02198276
108	0x3d1b31ad	0.03788917
109	0xbc1ceb54	-0.009577591
110	0x3d809d6a	0.06280024
111	0xbd79f925	-0.06102862
112	0xbd6ab19d	-0.05729829
113	0x3ce7de24	0.028304167
114	0x3cb14d19	0.021643208
115	0xbcde3165	-0.027123163
116	0x3d32e457	0.043674793
117	0xbd1f00d8	-0.038819164
118	0xbaad5b66	-0.0013226091
119	0xbcbf9b45	-0.023389468
120	0xbd3b045a	-0.045658447
121	0x3d90e044	0.07074025
122	0xbcfa6f8e	-0.030570772
123	0xbd3c52cf	-0.04597741
124	0xbd63d79b	-0.05562554
125	0x3c1183a0	0.0088814795
126	0x3d21d282	0.039507397
127	0x3bcc5b38	0.00623646

2.weight f4 [1, 128]
0	0xba0f553b	-0.00054677174
1	0xbd94491b	-0.07240506
2	0x3bf069aa	0.007336815
3	0x3ca2b191	0.01986006
4	0xbb9aae6f	-0.004720501
5	0xbd9cab31	-0.0764984
6	0x3d16b09f	0.036789533
7	0xbdbb3cc6	-0.09142451
8	0xbd0df37d	-0.034656037
9	0xbd8af5b8	-0.067851484
10	0x3a3042d2	0.0006723824
11	0x3d02f82c	0.031974956
12	0xbd773ad5	-0.06035884
13	0xbd6eb9fb	-0.058282834
14	0xbda2918b	-0.07937916
15	0x3c14623e	0.009056626
16	0xbdb3fa5b	-0.08787986
17	0xbd87150e	-0.06595813
18	0xbdbee8f0	-0.09321773
19	0xbd6e21da	-0.058137752
20	0xbd7a3ff9	-0.061096165
21	0x3b7649c0	0.003758058
22	0x3d3311e3	0.04371823
23	0xbd9eb713	-0.077497624
24	0x3ba996e6	0.005175459
25	0xbd7b38d3	-0.06133349
26	0x3c9fa1cc	0.01948633
27	0xbda24b0f	-0.079244725
28	0x3c79d826	0.015249288
29	0xbd9b204c	-0.075745195
30	0x3d47085b	0.048591953
31	0x3c95d39f	0.018289385
32	0xbcd996dc	-0.026561193
33	0x3c394d91	0.011309997
34	0x3d2b15b9	0.041768763
35	0xbd9dff02	-0.077146545
36	0x3d05695a	0.032571174
37	0x3d7a4418	0.061100096
38	0x3d33bdad	0.04388206
39	0x3d27b183	0.040940773
40	0xbb9145d2	-0.004433372
41	0x3cb093d0	0.021554857
42	0xbda77e2f	-0.081783645
43	0xbd943fe4	-0.07238749
44	0xbd9ff28f	-0.07809936
45	0xbdc32012	-0.09527601
46	0xbda37a83	-0.07982352
47	0xbd873bcd	-0.06603203
48	0xbd94ff28	-0.0727523
49	0x3cf3e9d4	0.029774584
50	0x3d29148e	0.041279368
51	0xbb07a933	-0.0020700216
52	0x3cb75ee9	0.022384124
53	0x3d1010be	0.035172217
54	0xbd9a1b86	-0.07524781
55	0x3bc8ece6	0.006131756
56	0xbd6c300c	-0.05766301
57	0x3d55b59f	0.05217516
58	0xbd73085b	-0.05933414
59	0xbd9a7a1d	-0.075428225
60	0xbd8e7d3b	-0.069574796
61	0xbd68d6d9	-0.05684552
62	0x3bf66b70	0.0075201318
63	0xbd183595	-0.037160475
64	0xbd84ece6	-0.06490497
65	0xbda42e9b	-0.08016702
66	0xbda6c5e2	-0.08143212
67	0xbd7e3af7	-0.062067952
68	0xbd86d568	-0.06583673
69	0xbd88fa79	-0.06688399
70	0x3cea83c3	0.028627282
71	0xbd798da2	-0.060926087
72	0xbd7e0fcd	-0.062026788
73	0x3bda2651	0.0066573997
74	0xbda3af8b	-0.079924665
75	0xbd8dd6fa	-0.06925769
76	0xbd86f612	-0.06589903
77	0xbd68f482	-0.056873806
78	0x3cc8f675	0.024531582
79	0xbd91e925	-0.07124547
80	0xbd959928	-0.07304603
81	0xbd9b6db9	-0.07589287
82	0x3c05e7b9	0.008172923
83	0xbd885f7a	-0.06658836
84	0xbd7df245	-0.061998624
85	0xbd74d135	-0.059769828
86	0xbc1f9568	-0.009740211
87	0xbd4655aa	-0.04842154
88	0xbd842e6a	-0.06454165
89	0xbd5afbf2	-0.05346293
90	0x3d3c5b22	0.04598535
91	0xbda9d794	-0.082930714
92	0xbd687cd6	-0.056759678
93	0xbd91029d	-0.070805766
94	0xbdb2a8eb	-0.08723625
95	0xbd9321ad	-0.071841575
96	0xbd8f1c4f	-0.06987821
97	0xbd9ed7d6	-0.07756011
98	0xbd83ea38	-0.06441158
99	0xbd8e0a66	-0.06935577
100	0x3d45463e	0.04816269
101	0x3cb73d2f	0.022368042
102	0x3cc51d2d	0.024061764
103	0xbd700731	-0.05860061
104	0xbd809042	-0.06277515
105	0xbd5fecc3	-0.054669153
106	0x3d115cdf	0.03548896
107	0xbdcd584b	-0.10026606
108	0xbd516e69	-0.051130686
109	0xbd8fb57a	-0.07017036
110	0x3d25e9e1	0.040506247
111	0xbda44f90	-0.08022988
112	0xbbc95fbf	-0.006145447
113	0xbd4c18bf	-0.049828287
114	0xbd70a3b2	-0.058749862
115	0xbdadbc42	-0.08483173
116	0xbd89e6b6	-0.06733458
117	0xbda7c1cd	-0.081912614
118	0xbd93267a	-0.07185073
119	0xbdad983c	-0.08476302
120	0xbc892f2c	-0.016746126
121	0x3d29355d	0.041310657
122	0xbd991051	-0.07473815
123	0xbb2e1dcc	-0.0026568053
124	0xbdae68e2	-0.085160986
125	0xbd76b482	-0.06023074
126	0x3c9c6766	0.019092273
127	0x3cc33838	0.023830518
