scripts/wandb_new/PreTrainedEncoders/Milc/cone.pt (torch_old, 206128 bytes, 2 tensors)

weight f4 [200, 256]
0	0xbbd206f0	-0.0064095184
1	0x3b815bf2	0.0039477283
2	0x3ae2206e	0.0017252096
3	0xbc0a3da4	-0.008437548
4	0xbb944937	-0.0045253295
5	0x3c476648	0.012170382
6	0xbad6a363	-0.0016375597
7	0xbc10892b	-0.008821766
8	0x3c831fc9	0.016006367
9	0xbbcfacef	-0.006337754
10	0xbc99d949	-0.018780367
11	0xbccb13bc	-0.024789684
12	0x39f8a7f6	0.00047427387
13	0x3b09b367	0.0021011473
14	0xbc072f15	-0.008250971
15	0x3bb6f76d	0.0055836947
16	0xbbf05385	-0.007334175
17	0xbccdce58	-0.025122806
18	0xb9cf31f8	-0.00039519346
19	0xbd0bf5f5	-0.03417011
20	0xbb412510	-0.0029471554
21	0xbc8072aa	-0.015679676
22	0xbd0fef21	-0.03514016
23	0xbc307333	-0.010769653
24	0x39b9e125	0.00035453695
25	0x3a673f4d	0.0008821383
26	0xbc09180b	-0.008367549
27	0xbc34334a	-0.010998556
28	0xbd0d4edf	-0.034499045
29	0x3b6c9dc9	0.003610479
30	0x3bed842e	0.007248423
31	0xbc958f29	-0.01825674
32	0xbb891941	-0.0041839187
33	0xbc8272b0	-0.015923828
34	0x3c9bfdcb	0.019041916
35	0xbbf8f70a	-0.0075978087
36	0xbb9ec147	-0.004844818
37	0x3c2a9aec	0.010412913
38	0x3c9f5ae2	0.019452516
39	0x3c38f279	0.011288279
40	0xbb6c7ee6	-0.003608638
41	0x3aae1e41	0.0013284163
42	0x3c94c6d5	0.018161217
43	0xbad191ee	-0.0015988925
44	0xbbd8025b	-0.0065920777
45	0x3c802e70	0.015647143
46	0xbb891432	-0.0041833157
47	0x3c8031ec	0.015648805
48	0x3a4b0278	0.00077442033
49	0x3c104cd9	0.008807384
50	0xbb1b5acf	-0.002370525
51	0x3bf0bed5	0.0073469677
52	0xbcb4e3f8	-0.02208136
53	0xbb72a6a1	-0.0037025588
54	0xbb8b56f5	-0.0042523094
55	0x3c5905f4	0.013246048
56	0x3bdf28f4	0.006810302
57	0xbc99471a	-0.018710662
58	0xbc068c88	-0.008212216
59	0xbc60cc1f	-0.013720541
60	0x3c237b8e	0.009978188
61	0xbcff238c	-0.03114488
62	0xbbbb21f9	-0.005710837
63	0x3c2e7978	0.010649078
64	0x3d0466c7	0.03232458
65	0x3b02e542	0.0019973074
66	0x3c1d60c8	0.009605594
67	0xbcd6a7ed	-0.02620312
68	0x3c40eb80	0.011774898
69	0xbcc078d3	-0.023495113
70	0xbbb60177	-0.005554374
71	0xbc55a1d2	-0.013039069
72	0xbcaae34e	-0.02086034
73	0xbc00e8a0	-0.007867962
74	0xbc9ec846	-0.019382607
75	0xbc9108de	-0.017704424
76	0x3beba390	0.007191129
77	0xbb6034cb	-0.0034211155
78	0xbb562992	-0.0032678586
79	0xbc1e1372	-0.009648191
80	0x3cbefe9f	0.023314772
81	0x3b7773bb	0.003775819
82	0xbbec5601	-0.007212401
83	0x3b336880	0.002737552
84	0xbbdda19b	-0.0067636496
85	0xbc122b8e	-0.008921517
86	0x3cbb8cc9	0.02289428
87	0xbc90707e	-0.017631765
88	0xb9f22cf8	-0.0004619134
89	0x3c651713	0.013982552
90	0xbc0ff64e	-0.008786751
91	0xbcb024bc	-0.021501891
92	0xbba66c0a	-0.005078797
93	0xbb9fe794	-0.004879901
94	0xbceb456a	-0.028719623
95	0x3c87b697	0.016566558
96	0xbce7e077	-0.028305275
97	0x3b96ad56	0.0045983
98	0xbbe28977	-0.0069133597
99	0xbc86fddf	-0.016478477
100	0xbb2d50ba	-0.0026445822
101	0x3be34616	0.006935845
102	0x3b7b70fa	0.00383669
103	0xbb852122	-0.0040627876
104	0x3c54f238	0.012997203
105	0xbca54d9c	-0.020178609
106	0xbc2e88c4	-0.010652725
107	0xbb93d699	-0.004511666
108	0x3baa3dc0	0.0051953495
109	0xbba3accc	-0.004994964
110	0xbc2486f8	-0.010041945
111	0xbb826c7d	-0.003980218
112	0xbccb2874	-0.024799563
113	0x3b55a0a2	0.0032596965
114	0x3ca53c82	0.020170454
115	0x3c8a1234	0.016854383
116	0xbbae323b	-0.0053160465
117	0xbbbd8c04	-0.0057845134
118	0x3d0c1682	0.034201153
119	0x3c9a5be5	0.018842647
120	0x3ba8d3b3	0.0051521896
121	0xbb0e52a3	-0.0021716736
122	0xbb17da16	-0.002317076
123	0xbcd98a8e	-0.026555326
124	0x3ba6e1ed	0.0050928504
125	0x3c01d866	0.007925129
126	0x3bc0817a	0.00587481
127	0xbc85179b	-0.016246608
128	0x3c47fa91	0.012205736
129	0xbc98f910	-0.01867345
130	0xbc15852c	-0.009125989
131	0xbc631435	-0.013859798
132	0xbc3785af	-0.011201306
133	0x3b5ec380	0.0033991039
134	0x3c106f95	0.008815666
135	0xbc716234	-0.014732886
136	0x3c4b8f86	0.012424355
137	0x3c2ce5a8	0.010552801
138	0xb9b6e04b	-0.00034880856
139	0xbc4c2997	-0.012461088
140	0xbca3711a	-0.019951392
141	0xbb3dc3cc	-0.0028955815
142	0xbce6bd9a	-0.028166581
143	0x3a714eb0	0.0009205146
144	0xbcd2cf1e	-0.025733527
145	0xbb8aaeba	-0.004232255
146	0x3c5bedd7	0.013423405
147	0xbc367442	-0.011136116
148	0xbcecff9e	-0.028930482
149	0x3c9857d2	0.018596563
150	0x3c3ba276	0.011452308
151	0xbcb94da0	-0.022620022
152	0xbb69d825	-0.003568181
153	0x3cbb3f1e	0.022857245
154	0x3c87a371	0.016557427
155	0x3b780d37	0.0037849674
156	0xbc678194	-0.014130015
157	0x3c02a22a	0.007973233
158	0xbc3fa845	-0.011697833
159	0xbbbb7159	-0.005720299
160	0x3c7d43ce	0.01545806
161	0x3d15e976	0.0365996
162	0xbc406887	-0.011743671
163	0xbbdb4377	-0.006691392
164	0x3be9095b	0.007111711
165	0xbc8df676	-0.017329436
166	0x3cc885b8	0.024477825
167	0xba9fc817	-0.0012190369
168	0xbb835f4d	-0.0040091635
169	0x3c00dfad	0.007865828
170	0x3c929d6f	0.017897336
171	0x3c778c5c	0.015109148
172	0xbce7f7e0	-0.028316438
173	0x3c3fe5e4	0.011712525
174	0x3c962223	0.018326825
175	0x3c70304d	0.014659953
176	0xbcac8ca6	-0.02106316
177	0xbbc4cf74	-0.0060061757
178	0x3c14f115	0.009090682
179	0x3c31cd13	0.010852116
180	0x3cb4059c	0.021975331
181	0x3c098e70	0.008395776
182	0x3b01d29f	0.0019809378
183	0xb9fdeb4f	-0.0004843124
184	0x3c3b7d55	0.011443456
185	0x3a402e58	0.00073311245
186	0xbb27d63c	-0.0025609871
187	0x3be20798	0.006897878
188	0xbb8ee2af	-0.004360519
189	0xbcebf861	-0.02880496
190	0x3bedd188	0.007257644
191	0xbb897f2d	-0.0041960687
192	0xbc2c51e7	-0.010517574
193	0xba9ab95d	-0.001180451
194	0x3bcd9872	0.0062742764
195	0x3b0ef84c	0.0021815477
196	0xbc489900	-0.012243509
197	0xbba047c1	-0.004891366
198	0xba2b65e6	-0.00065383164
199	0xbc085e47	-0.008323259
200	0x3c550476	0.013001552
201	0x3bbb1a50	0.005709924
202	0x3c173ca0	0.009230763
203	0x3ca62882	0.020282988
204	0x3c8ab4c6	0.016931903
205	0xbb018645	-0.0019763869
206	0xbb1727a9	-0.002306441
207	0xbc38c493	-0.011277336
208	0xbc822819	-0.01588826
209	0x3c5c4b78	0.0134457275
210	0xbcf1e3ab	-0.029527506
211	0x3c75354a	0.014966318
212	0x3c962049	0.018325942
213	0xbc882165	-0.016617486
214	0xbc88dee1	-0.01670784
215	0xbcd64933	-0.026157951
216	0x3c2f41a8	0.010696806
217	0xbb02dc33	-0.0019967675
218	0x3ac8ff61	0.0015334898
219	0x3a6032cc	0.0008552491
220	0xbc9280b3	-0.017883634
221	0xbd1dce3b	-0.038526755
222	0xbc356626	-0.011071717
223	0xbcf1aa25	-0.029500077
224	0x3c428e35	0.011874725
225	0xbc4aba65	-0.0123735415
226	0x3a8f433b	0.001093007
227	0x3c9818a5	0.018566439
228	0xbc143669	-0.0090461755
229	0x3ba3cb88	0.004998628
230	0xbc865101	-0.016396048
231	0xbb3bfe3c	-0.002868547
232	0x3cc1ed15	0.02367262
233	0xbce01dbc	-0.027357928
234	0x3bbe5175	0.0058080503
235	0xbbd22096	-0.006412576
236	0xbb6857d8	-0.003545275
237	0xb99102e4	-0.0002765871
238	0x3c502792	0.012704747
239	0xbc7de995	-0.015497585
240	0x3bf83466	0.0075746058
241	0x3c3f48e8	0.011675097
242	0xb9fedbb2	-0.0004861034
243	0x3b7cf3b8	0.0038597416
244	0xb996e025	-0.0002877723
245	0xbc5064cf	-0.012719347
246	0x3ab0f8b3	0.0013501853
247	0x3c45d11d	0.012073782
248	0xbb5e1c6e	-0.0033891457
249	0x3c98ee24	0.018668242
250	0x3c7f9555	0.015599568
251	0x3b816249	0.003948484
252	0xbc6abe85	-0.01432765
253	0x3c3b1cbc	0.011420425
254	0xbba490e3	-0.0050221547
255	0x3beb5232	0.0071814293

bias f4 [200]
0	0xbd93b0c8	-0.07211453
1	0x3d38aac4	0.04508473
2	0x3c4477a7	0.011991418
3	0xbc473b86	-0.012160188
4	0x3d8a1485	0.06742195
5	0xbd3e12cf	-0.046404656
6	0xbcbf0b8c	-0.023320936
7	0x3d1b16c3	0.037863504
8	0x3d433ac6	0.047663473
9	0x3d3ff335	0.0468628
10	0x3b64d441	0.0034916552
11	0xbd11cc00	-0.03559494
12	0xbd84ccce	-0.06484376
13	0x3d1c8766	0.038215064
14	0x3d2451ee	0.040117197
15	0x3d74f0c4	0.059799924
16	0xbd203a8a	-0.039118327
17	0x3d192499	0.037388418
18	0xbc698ecb	-0.014255236
19	0x3d404bb1	0.046947185
20	0x3c8c7955	0.0171477
21	0xbd6c3535	-0.05766793
22	0x3cc7dc18	0.024396941
23	0x3d13c186	0.03607323
24	0xbc7b8171	-0.015350685
25	0xbc2e8676	-0.010652175
26	0x3d6e142f	0.058124717
27	0xbb6a0df0	-0.0035713874
28	0x3d3d0dc0	0.04615569
29	0xbd7b3d6f	-0.061337885
30	0xbd471c37	-0.048610892
31	0xbc02c3dd	-0.007981268
32	0xbcb6dfd5	-0.022323528
33	0x3d6b1d82	0.057401188
34	0x3da12fa1	0.078704126
35	0x3c821830	0.015880674
36	0x3d9d14ba	0.07669969
37	0x3d0c47e3	0.034248244
38	0x3db0e344	0.086370975
39	0x3d1a19c7	0.03762224
40	0x3c5c4750	0.013444737
41	0x3caeb1ab	0.021324953
42	0x3d48a710	0.04898745
43	0xbce90b37	-0.02844773
44	0x3d32aa65	0.043619532
45	0xbc8bf6d6	-0.017085474
46	0x3d6d2fae	0.0579068
47	0x3d93846a	0.0720299
48	0x3b4430ef	0.0029936393
49	0xbd467059	-0.048446987
50	0xbd686b6f	-0.05674308
51	0x3c2687e8	0.0101642385
52	0xbc4d62b8	-0.012535743
53	0xbcb56ce5	-0.022146652
54	0x3d5b3fca	0.05352763
55	0x3bc13e88	0.005897347
56	0xbd1aeb9a	-0.037822343
57	0xbccf7612	-0.025324855
58	0xbdaabed2	-0.08337177
59	0xbd4c68b1	-0.04990453
60	0x3c629d14	0.013831396
61	0xbd324532	-0.04352302
62	0xbd57652c	-0.05258672
63	0xbd8242c1	-0.063603885
64	0xbc7f4be6	-0.01558206
65	0xbbb524c5	-0.005528065
66	0x3d01c9e9	0.031686697
67	0x3d6d7d50	0.057980835
68	0x3d49b360	0.04924333
69	0xbd2d0b6c	-0.04224722
70	0xbd9fe8e5	-0.07808093
71	0xbc1a1912	-0.009405391
72	0x3c45d52e	0.012074752
73	0xbd44e781	-0.04807234
74	0x3c53bb21	0.012923033
75	0x3d45f03b	0.048324805
76	0x3d1c2bde	0.038127773
77	0xbd86db1e	-0.06584762
78	0x3d04fdc6	0.03246858
79	0x3d3c73f6	0.046009026
80	0xbd4b757b	-0.049672585
81	0xbd044742	-0.03229452
82	0xbccd0cf8	-0.025030598
83	0x3d8d1710	0.068891644
84	0x3d469af5	0.048487622
85	0xbc41f5a3	-0.0118383495
86	0xbcf53e6c	-0.029936992
87	0x3bdd84d1	0.0067602177
88	0x3d62ec46	0.05540111
89	0xbb3f4523	-0.0029185496
90	0xbcdc6066	-0.026901435
91	0xbcc3e325	-0.023912022
92	0xbbc04fa7	-0.0058688703
93	0x3d7dc271	0.061953012
94	0xbd7b75e9	-0.061391745
95	0xbd84c311	-0.064825185
96	0x3c7fa99a	0.015604401
97	0x3ccd14d9	0.025034355
98	0x3cd0cbcf	0.025487809
99	0xbdb16d06	-0.08663373
100	0x3c8ab6e9	0.016932921
101	0xbd3780a0	-0.0448004
102	0x3d8e81be	0.0695834
103	0xbd0044ca	-0.031315602
104	0x3d907d3d	0.07055137
105	0xbc081181	-0.0083049545
106	0xbcf9fa45	-0.030514846
107	0x3cf870ca	0.03032722
108	0x3d608438	0.054813594
109	0x3c579557	0.013158164
110	0xbc0e5064	-0.008686159
111	0xbd447c90	-0.047970355
112	0xbd8c87d9	-0.068618484
113	0x3d78194a	0.060570993
114	0xbcc894cf	-0.02448502
115	0x3cb6db02	0.022321228
116	0xbd13b938	-0.03606531
117	0xbd769609	-0.06020168
118	0xbd630482	-0.05542422
119	0x3d6225f9	0.055211995
120	0xbc6291ed	-0.013828737
121	0xbd2d59ae	-0.042321853
122	0x3d566a9d	0.052347768
123	0x3d5e73db	0.054309707
124	0xbd5dd739	-0.05416033
125	0x3d45fdd0	0.048337758
126	0xbc9351ce	-0.017983343
127	0xbd8398d2	-0.064256325
128	0xbd65ddeb	-0.05611984
129	0x3c340f5e	0.010989992
130	0xbc9f9823	-0.019481724
131	0xbc9aa7ed	-0.018878901
132	0xbcd175d2	-0.025568876
133	0xbcba86a1	-0.022769274
134	0x3cd2c5a5	0.02572901
135	0x3c00707b	0.007839317
136	0x3d20b8f8	0.0392389
137	0xbd7b348d	-0.061329413
138	0xbd23ca18	-0.039987653
139	0x3c892780	0.016742468
140	0x3d03995e	0.032128684
141	0x3d454696	0.04816302
142	0x3d179130	0.037003696
143	0xbc2cd916	-0.010549804
144	0x3bd3f2c8	0.0064681508
145	0x3c801569	0.01563521
146	0xbcefefa0	-0.029289067
147	0xbc9820cf	-0.018570332
148	0xbd227a16	-0.03966721
149	0x3d67251c	0.056431875
150	0xbd4f2ed9	-0.050581787
151	0x3d35c886	0.044380687
152	0xbc3314f5	-0.0109302895
153	0xbd4b9265	-0.04970016
154	0xbd2ff630	-0.042959392
155	0x3c55c135	0.013046552
156	0xbce4a36a	-0.027909953
157	0xbc74665d	-0.014916983
158	0xbd98d269	-0.074620076
159	0xbd5c7744	-0.053824678
160	0x3ccfcf49	0.025367396
161	0xbd66fec2	-0.0563953
162	0xbdb4480b	-0.088028036
163	0x3d195723	0.037436616
164	0xbd051cfc	-0.032498345
165	0x3c026c28	0.007960357
166	0xbc9a4e80	-0.01883626
167	0x3d8608ac	0.06544623
168	0xbc8fe39b	-0.017564585
169	0xbd9c872a	-0.07642968
170	0x3d322e2f	0.043501075
171	0xbba9936f	-0.005175046
172	0xbcb0390e	-0.02151158
173	0xbc2c13eb	-0.010502796
174	0x3d65791a	0.056023695
175	0x3d12a1c1	0.03579879
176	0x3d1a1f5d	0.037627567
177	0xbdafebf4	-0.08589926
178	0xbd936a1b	-0.071979724
179	0x3d1b4d19	0.037915323
180	0xbd7744a1	-0.060368184
181	0xbd14e746	-0.036353372
182	0xbd9efe7f	-0.07763385
183	0xbd4f3b38	-0.050593585
184	0x3d3ffc45	0.046871442
185	0xbc0431d0	-0.008068517
186	0xbd07d7fd	-0.033164967
187	0x3c9c68b1	0.01909289
188	0xbd2afc63	-0.0417446
189	0x3d2010d4	0.03907855
190	0xbd4c78c4	-0.04991986
191	0x3d297397	0.04137
192	0xbd5ec6dd	-0.05438887
193	0xbcfc52b8	-0.030801162
194	0xbd5af466	-0.053455733
195	0x3da298c3	0.07939293
196	0xbd4bfff5	-0.049804647
197	0xbd3daa52	-0.04630501
198	0x3da820e8	0.08209401
199	0x3cb9a440	0.022661328
